assets/checkpoints/esc50_cnn.pt (torch, 407771 bytes, 20 tensors)

net.0.weight f4 [32, 1, 3, 3]
0	0x3ea004ca	0.31253654
1	0x3eb3b184	0.3509637
2	0x3d45f0ef	0.048325475
3	0x3e8f6d63	0.28013143
4	0xbc779c17	-0.015112898
5	0x3e0fbf59	0.14037837
6	0xbde65c96	-0.11248128
7	0x3e3637ff	0.17794798
8	0x3e85ce82	0.26134115
9	0xbe679e86	-0.22619066
10	0x3e6600c2	0.22461227
11	0x3d0f4c26	0.03498473
12	0x3e610b90	0.21977067
13	0x3df674f8	0.12034029
14	0x3e7ade1e	0.24498793
15	0xbbdb8008	-0.006698612
16	0x3eb22c58	0.34799457
17	0x3e3a8a3b	0.18216793
18	0xbe3285d7	-0.17433868
19	0x3d880b78	0.066428125
20	0xbe0fc60a	-0.1404039
21	0xbdb33e53	-0.08752122
22	0xbe19b4ba	-0.15010348
23	0x3e3f0b43	0.1865664
24	0xbe9c4a25	-0.30525318
25	0xbe2933f6	-0.16523728
26	0xbdf0dc63	-0.117607854
27	0xbe5ceba4	-0.21574265
28	0x3ce7121a	0.028206874
29	0xbeaecb95	-0.34139696
30	0x3e9d22b2	0.30690533
31	0xbe7dad14	-0.24773055
32	0x3e8780e5	0.26465526
33	0x3d647506	0.055775665
34	0xbdaf5249	-0.085606165
35	0x3e55e82a	0.20889345
36	0x3dbacf34	0.09121552
37	0x3e8804d6	0.2656619
38	0x3d0efada	0.0349072
39	0xbd457700	-0.04820919
40	0x3e0be328	0.13660872
41	0xbd83ce64	-0.0643585
42	0x3e3440b7	0.17602812
43	0x3e9ff31a	0.3124016
44	0x3e351fdb	0.17687933
45	0xbe121490	-0.14265656
46	0x3e5b08ae	0.2139003
47	0x3d76b880	0.060234547
48	0x3e2e4244	0.17017466
49	0xbe35f208	-0.17768109
50	0xbea5fc7d	-0.32419196
51	0xbe179d94	-0.14806205
52	0xbe7f8340	-0.24952412
53	0x3e8b0179	0.2714956
54	0x3d6cd367	0.057818796
55	0x3df91519	0.12162227
56	0x3dc22850	0.09480345
57	0xbcd3073b	-0.025760284
58	0x3e84f6cd	0.25969544
59	0xbe710dc3	-0.23540406
60	0x3b63514e	0.0034685913
61	0xbe7b56fa	-0.24544898
62	0x3de45220	0.111484766
63	0xbddb8e4d	-0.10720501
64	0x3dc93b97	0.09825819
65	0xbcdfb8e8	-0.02730985
66	0x3e8cfe96	0.27537984
67	0xbe6d3c6d	-0.23167582
68	0xbe3e3db5	-0.18578227
69	0xbe601e83	-0.2188664
70	0x3e8c9516	0.27457494
71	0x3dfe8a3a	0.124287084
72	0x3ea495d3	0.32145557
73	0xbe8d187c	-0.27557743
74	0xbea771b6	-0.32703942
75	0xbe76c3fc	-0.240982
76	0xbe534a46	-0.20633802
77	0x3e18b55f	0.14912938
78	0x3e1174af	0.14204668
79	0x3e95d01b	0.29260334
80	0xbe1a50df	-0.15069912
81	0xbe52c4e4	-0.2058292
82	0x3e46662e	0.19374916
83	0xbd8cba76	-0.06871502
84	0x3e442c84	0.19157606
85	0xbd86cf37	-0.06582492
86	0x3e6ee698	0.23330152
87	0xbe820094	-0.25391066
88	0xbe1a2de8	-0.15056574
89	0x3e09e28d	0.13465329
90	0x3d9c0779	0.07618613
91	0xbddb9ece	-0.10723649
92	0x3e293c0e	0.16526815
93	0x3e7dd94d	0.24789925
94	0xbe68d7d0	-0.22738576
95	0xbe2dd386	-0.16975221
96	0x3ea34bda	0.31893808
97	0xbde5d798	-0.11222762
98	0xbdf564d1	-0.1198212
99	0xbe94d085	-0.29065338
100	0xbe10de05	-0.14147194
101	0x3dee6739	0.11640782
102	0xbd895982	-0.067065254
103	0xbe6e21f9	-0.23255147
104	0x3cc43a26	0.023953509
105	0xbe9528a7	-0.29132578
106	0xbe839b12	-0.25704247
107	0xbe32c0ba	-0.17456332
108	0xbe8d7b12	-0.27632958
109	0xbe4a106e	-0.1973283
110	0x3eb33c32	0.35006863
111	0x3d24b713	0.040213656
112	0x3dc8e20e	0.098087415
113	0xbe982f79	-0.2972372
114	0xbe73b5ae	-0.23799774
115	0xbdef9cd8	-0.116998374
116	0x3d84eb8b	0.06490239
117	0xbe93ea74	-0.2888981
118	0xbdf2c540	-0.11854029
119	0xbdd5de1b	-0.10442754
120	0xbe0195a2	-0.12654737
121	0xbe313f21	-0.17309238
122	0xbc1b2e92	-0.009471552
123	0xbea9fc7f	-0.33200452
124	0xbe4bafe4	-0.19891316
125	0xbe10c7c7	-0.14138709
126	0xbe007d02	-0.12547687
127	0xbe7f3998	-0.24924314
128	0x3e979ea2	0.29613215
129	0xbdba2dad	-0.09090743
130	0x3e8b7a47	0.27241728
131	0x3dd607e7	0.10450726
132	0xbe8e44ef	-0.27786967
133	0x3e71baeb	0.2360646
134	0xbd8082b2	-0.06274928
135	0xbdd488e8	-0.10377675
136	0xbe65a874	-0.22427541
137	0xbe9d357b	-0.30704865
138	0x3e019091	0.12652804
139	0xbd766759	-0.060157154
140	0x3e20b2dd	0.15693231
141	0xbe76f559	-0.2411703
142	0x3e95a131	0.29224542
143	0xbe58a27a	-0.2115573
144	0xbd458a0c	-0.048227355
145	0x3cea5b9c	0.028608136
146	0x3e1af1f9	0.15131368
147	0x3e981ccf	0.2970948
148	0x3e8e7e44	0.27830708
149	0xbe7e7916	-0.24850878
150	0x3d83c97a	0.06434913
151	0xbe3f132a	-0.18659654
152	0xbdb1ac4d	-0.08675442
153	0xbe901bb7	-0.28146145
154	0x3e89efbd	0.26940718
155	0xbe85193e	-0.2599582
156	0x3dff9502	0.12479593
157	0x3dd3bcfa	0.10338779
158	0x3da95a4d	0.08269177
159	0xbe4227a4	-0.18960434
160	0x3ea690d2	0.32532364
161	0x3d6dd6da	0.058066227
162	0x3d84c069	0.06482012
163	0xbe8935c4	-0.26798832
164	0x3e2e7480	0.17036629
165	0xbd2da9f8	-0.042398423
166	0xbe1b3abd	-0.15159126
167	0x3e9aad25	0.30210224
168	0x3da01654	0.07816759
169	0xbe3c00f5	-0.1835974
170	0xbe01ae03	-0.12664036
171	0x3d257e9e	0.040403955
172	0x3e523f0d	0.20531864
173	0xbdbeb1f8	-0.093112886
174	0xbe063bac	-0.131087
175	0xbd9f5479	-0.07779784
176	0xbe787037	-0.24261557
177	0x3e1c5d09	0.15269865
178	0x3e88ffee	0.2675776
179	0xbea1e756	-0.31621808
180	0x3de8322d	0.11337695
181	0x3e24ad94	0.1608184
182	0x3e020425	0.12696894
183	0xbe2cb045	-0.16864116
184	0x3d31e839	0.043434355
185	0x3dcc9d02	0.09990884
186	0x3cefb7f3	0.029262519
187	0xbe0c760d	-0.13716908
188	0xbe070705	-0.13186271
189	0x3d888460	0.066658735
190	0xbd44c636	-0.04804059
191	0xbdecdf03	-0.115659736
192	0x3e611b8b	0.21983163
193	0x3e742103	0.23840718
194	0xbd4b45ca	-0.049627103
195	0xbd89449d	-0.0670254
196	0xbd47dd8c	-0.048795268
197	0xbdbffdb7	-0.09374564
198	0x3dd4c234	0.10388604
199	0x3db279c5	0.08714632
200	0xbe8f9e08	-0.28050256
201	0xbdbd3aac	-0.092397064
202	0x3e8dae6b	0.27672133
203	0x3e0b5b2f	0.13609003
204	0xbc36dda7	-0.0111612445
205	0xbe6a5e85	-0.22887619
206	0xbe5e66c1	-0.21718885
207	0xbe7f51bf	-0.24933527
208	0xbd976dc8	-0.07393986
209	0x3e1fafb7	0.15594374
210	0x3e70e067	0.23523103
211	0x3e2a1ddd	0.16612954
212	0xbe8f5a76	-0.27998704
213	0xbe58eb69	-0.21183552
214	0xbd8bdce1	-0.06829239
215	0x3eaafb25	0.33394733
216	0x3df3493e	0.11879204
217	0xbc1fcb94	-0.009753127
218	0x3e419b28	0.18906844
219	0xbd74bb4e	-0.05974894
220	0xbe127c0c	-0.14305133
221	0x3e8d0e44	0.27549946
222	0xbe123126	-0.14276561
223	0xbd529b87	-0.051417854
224	0xbe9ab0df	-0.30213067
225	0x3e47122c	0.19440526
226	0x3e6b4d8e	0.22978804
227	0x3dd85d57	0.10564678
228	0xbe8914f8	-0.2677381
229	0xbeb2bd39	-0.3490999
230	0xbe98a70d	-0.2981495
231	0x3e5b8da6	0.21440753
232	0x3e0cf232	0.13764265
233	0x3e7e365d	0.24825425
234	0x3e84015b	0.25782284
235	0x3e1373f9	0.14399709
236	0x3d3fa389	0.04678682
237	0xbe268e8a	-0.16265312
238	0xbe448e83	-0.19194989
239	0xbe8a3523	-0.26993665
240	0x3e44d5e6	0.19222221
241	0xbdc4a96a	-0.09602626
242	0xbd4de894	-0.050270632
243	0xbe57a474	-0.21058828
244	0xbd17af9f	-0.03703272
245	0xbe93ebf1	-0.28890947
246	0xbe4ed873	-0.20199756
247	0x3df43417	0.11923998
248	0xbde7be38	-0.11315578
249	0x3e69e19c	0.2283997
250	0xbd808159	-0.06274671
251	0xbe3aa013	-0.18225126
252	0xbd4ba76e	-0.04972022
253	0xbe2d7b41	-0.16941549
254	0xbdb2e435	-0.08734933
255	0xbe960968	-0.2930405

net.0.bias f4 [32]
0	0x3e7f61c0	0.24939632
1	0xbd9a7191	-0.07541192
2	0xbca4e4e5	-0.020128677
3	0xbe059e01	-0.13048555
4	0xbe9252f5	-0.28578916
5	0xbe9563ee	-0.29177803
6	0x3ddff993	0.109362744
7	0xbe252dd6	-0.16130766
8	0xbe43e78e	-0.191313
9	0xbccb1d3f	-0.024794219
10	0xbddede5e	-0.10882257
11	0xbdf41978	-0.1191892
12	0x3c2e5aa9	0.010641732
13	0xbd6d32dd	-0.057909835
14	0xbdf75069	-0.12075884
15	0xbe183715	-0.14864762
16	0xbe953028	-0.29138303
17	0x3e84e742	0.25957686
18	0xbdddf490	-0.10837662
19	0x3db659bd	0.08903835
20	0xbdcba339	-0.099432416
21	0x3d0ce432	0.03439731
22	0x3e9bd48c	0.30435598
23	0x3e6c7450	0.23091245
24	0xbe891abf	-0.26778218
25	0x3dfbed5d	0.12301133
26	0x3e98dbb9	0.29855135
27	0x3ddf247c	0.10895631
28	0x3e48e00a	0.19616714
29	0x3ed6cedc	0.41954696
30	0xbd071f9a	-0.032989122
31	0x3d80ae0a	0.06283195

net.1.weight f4 [32]
0	0x3f7e3478	0.9929881
1	0x3f7c1b55	0.98479205
2	0x3f7a8cdd	0.9787119
3	0x3f77cdde	0.96798503
4	0x3f7ff5e6	0.99984586
5	0x3f7c8919	0.98646694
6	0x3f80919c	1.0044436
7	0x3f7fb844	0.9989054
8	0x3f796949	0.9742628
9	0x3f7ba695	0.9830106
10	0x3f82ec67	1.0228394
11	0x3f7b0045	0.98047286
12	0x3f7d9ab3	0.9906418
13	0x3f7cc6d9	0.9874092
14	0x3f7eaaf2	0.9947959
15	0x3f7cf626	0.9881309
16	0x3f7db080	0.9909744
17	0x3f821b00	1.016449
18	0x3f800e62	1.0004389
19	0x3f8085cc	1.0040832
20	0x3f818ec0	1.0121689
21	0x3f7d56ef	0.98960775
22	0x3f78a68a	0.9712912
23	0x3f7ee569	0.995688
24	0x3f77aca6	0.96747816
25	0x3f83669f	1.0265692
26	0x3f7a8a1a	0.97866976
27	0x3f780314	0.96879697
28	0x3f845cfb	1.0340875
29	0x3f79d9e6	0.9759811
30	0x3f7bb675	0.9832528
31	0x3f7b0821	0.9805928

net.1.bias f4 [32]
0	0xbb80b0b7	-0.003927316
1	0x3cbcbe6f	0.023040025
2	0xbc5baf54	-0.013408501
3	0xbd8432f6	-0.064550325
4	0x3c564383	0.0130776195
5	0x3d375368	0.044757277
6	0xbd2190bd	-0.039444674
7	0x3d1f5963	0.038903605
8	0xbb6bc74f	-0.0035976951
9	0x3e17b789	0.14816107
10	0xbcc490b2	-0.023994777
11	0x3ca61eda	0.020278383
12	0x3c49cc40	0.012316763
13	0x3b9a612a	0.00471129
14	0xbd0098a3	-0.031395566
15	0xbbf4d378	-0.007471498
16	0xbcc13306	-0.0235839
17	0xbd1669e3	-0.036722075
18	0x390c7ecc	0.00013398676
19	0xbbc84a13	-0.006112346
20	0xbcffc27a	-0.031220663
21	0x3a011f69	0.000492564
22	0x3baa5447	0.005198035
23	0x3e0b8d0f	0.13628028
24	0x3b817c7a	0.0039516063
25	0xbd0383ad	-0.032107998
26	0x3d245101	0.040116314
27	0xb8939f03	-7.0391245e-05
28	0xbd8bdfc6	-0.06829791
29	0x3dbb0bb8	0.091330945
30	0xbd2b385a	-0.041801788
31	0x3b1078fa	0.0022044764

net.1.running_mean f4 [32]
0	0x3e8200ad	0.2539114
1	0xbd9debdd	-0.07711003
2	0xbca5b738	-0.020228967
3	0xbe0a39ff	-0.13498686
4	0xbe9202ee	-0.2851786
5	0xbe94afd0	-0.29040384
6	0x3de538cc	0.11192474
7	0xbe2633b0	-0.16230655
8	0xbe470320	-0.19434786
9	0xbcc9154a	-0.024546284
10	0xbddc69c9	-0.107623644
11	0xbdf464b8	-0.11933273
12	0x3c2b00cb	0.010437201
13	0xbd74f9b4	-0.059808448
14	0xbdf873e5	-0.1213148
15	0xbe1ca9d7	-0.15299164
16	0xbe942b05	-0.2893907
17	0x3e8351b6	0.25648278
18	0xbddc7a63	-0.10765531
19	0x3db7d585	0.089762725
20	0xbdc3ac2a	-0.09554322
21	0x3d0dc364	0.034610167
22	0x3e9c5def	0.30540416
23	0x3e6ad013	0.22930937
24	0xbe870a9a	-0.26375276
25	0x3dff935e	0.1247928
26	0x3e9a9204	0.30189526
27	0x3dd6a261	0.1048019
28	0x3e43f646	0.19136915
29	0x3ed70119	0.41993025
30	0xbd05869e	-0.032599084
31	0x3d6ff41d	0.058582414

net.1.running_var f4 [32]
0	0x3fedf5a9	1.8590595
1	0x3f9a47bd	1.2053143
2	0x3f355bf7	0.7084345
3	0x3d2587a2	0.040412553
4	0x3f85dac3	1.0457386
5	0x3df0c5f5	0.11756507
6	0x3d05051b	0.032475572
7	0x3c542686	0.012948638
8	0x3e004f28	0.12530196
9	0x3cdf2c94	0.027242936
10	0x3d4ae9c1	0.04953933
11	0x3fc75d4e	1.5575349
12	0x3ea1154f	0.3146157
13	0x3ffce77d	1.9758145
14	0x3d6c4dc9	0.05769137
15	0x3e9be612	0.30448967
16	0x3db2f1aa	0.087375
17	0x3db9a281	0.09064198
18	0x3d4726dc	0.048621044
19	0x3d9d2ebf	0.07674932
20	0x3d1e5ced	0.03866284
21	0x3d00fb84	0.031489864
22	0x3d87f344	0.06638196
23	0x3ca96fff	0.020683287
24	0x3d52ff8c	0.05151324
25	0x3da0d376	0.07852833
26	0x3d6db880	0.05803728
27	0x3f040b64	0.5157988
28	0x3d4cce2b	0.050001305
29	0x3d1804fa	0.03711412
30	0x3d9e956e	0.07743345
31	0x3faf5d9b	1.3700441

net.4.weight f4 [64, 32, 3, 3]
0	0xbd162951	-0.036660496
1	0xbc28da75	-0.01030599
2	0x3d0d3ea3	0.034483563
3	0x3cfe4c1f	0.031042157
4	0xbd192959	-0.037392948
5	0xbd680e80	-0.056654453
6	0xbcdcc52e	-0.026949491
7	0xbd4922ef	-0.04910558
8	0xbd44dc2f	-0.048061546
9	0xbc4cfd8e	-0.012511624
10	0x3d06dd60	0.032925963
11	0xbb2bd30b	-0.002621832
12	0xbd374ed3	-0.044752907
13	0xbd57c2e4	-0.052676097
14	0x3c826f30	0.015922159
15	0xbcf7f86c	-0.030269824
16	0xbb1a52e7	-0.0023547949
17	0x3caaf89c	0.0208705
18	0xbd309741	-0.043112997
19	0xbca29c4c	-0.019849919
20	0xbc4f66d8	-0.012658797
21	0xbcc82bf5	-0.024435023
22	0xbd200b30	-0.03907317
23	0xbd5888bb	-0.05286477
24	0xbd38ab06	-0.045084976
25	0xbcf1d2f3	-0.029519534
26	0x3d8c50d7	0.068513565
27	0xbd0cc5c0	-0.034368277
28	0xbd2fd98b	-0.042932075
29	0x3c2d9d5b	0.0105965985
30	0x3c3102ca	0.010803888
31	0x3ccf22a3	0.02528507
32	0x3d08918e	0.033341937
33	0x3caa2e7a	0.020774115
34	0xbd880385	-0.06641296
35	0xbc00a3e5	-0.0078515755
36	0x3d21946e	0.039448194
37	0xbbd06649	-0.0063598496
38	0xbd39fd03	-0.045407306
39	0x3d79b654	0.060964897
40	0xbcad9dd9	-0.021193432
41	0xbd277dff	-0.040891644
42	0xbd263e31	-0.040586654
43	0x3c13c999	0.009020233
44	0x3caa5474	0.020792224
45	0x3bffeb58	0.0078100376
46	0x3b72ed1f	0.0037067605
47	0xbd3a37dd	-0.04546343
48	0xbd6a2503	-0.057164203
49	0x3a39cae1	0.0007087421
50	0x3d824946	0.06361632
51	0x3d0b17d6	0.03395828
52	0xbcf5437a	-0.029939402
53	0x3c028177	0.007965437
54	0xbcf085bb	-0.029360643
55	0xbc9047e2	-0.017612401
56	0x3bb41298	0.0054953806
57	0x3d259cc5	0.04043271
58	0x3d546ccf	0.05186158
59	0xbd658404	-0.056034103
60	0x3d456f90	0.048202097
61	0xbd025702	-0.03182126
62	0x3cd51eae	0.026015606
63	0x3d8ce0f7	0.06878846
64	0x3cabb1b1	0.020958753
65	0x3d7ed14f	0.06221133
66	0xbd06f423	-0.03294767
67	0xbbcd31a3	-0.0062620207
68	0x3d2309de	0.039804332
69	0xba9551e0	-0.0011392199
70	0xbb8385c6	-0.00401375
71	0xbca04f0e	-0.019568946
72	0x3d13b673	0.03606267
73	0x3d0acbc7	0.033885743
74	0x3cb8f66d	0.022578442
75	0xbd3ff0a3	-0.04686035
76	0xbd5431fc	-0.05180548
77	0x3ab6c89c	0.0013945284
78	0x3c3b80c9	0.011444279
79	0xbceedc8a	-0.029157896
80	0xbbd8fdbf	-0.0066220458
81	0x3d02dd2d	0.03194921
82	0xbc2cc25d	-0.010544387
83	0xbc3cf30d	-0.011532557
84	0xbcddac9f	-0.027059851
85	0xbd8d062b	-0.06885942
86	0xbd99455d	-0.07483933
87	0xbcc102ef	-0.02356097
88	0xbd05dd50	-0.032681763
89	0x3c5ac948	0.013353653
90	0xbcdd4fac	-0.02701553
91	0xbce61210	-0.028084785
92	0x3d235925	0.039879937
93	0x3c87f34e	0.016595509
94	0x3d0e3400	0.03471756
95	0xbd059610	-0.032613814
96	0xbd0df41f	-0.03465664
97	0x3c4a008c	0.012329232
98	0xbd29e7e3	-0.04148091
99	0xbd649ad3	-0.055811714
100	0xbc9cb28a	-0.019128103
101	0xbcf6eda0	-0.030142605
102	0xbd6af57f	-0.05736303
103	0x3cc91e61	0.024550619
104	0x3d3e26c7	0.0464237
105	0x3c13a65c	0.009011831
106	0xbc2521b0	-0.0100788325
107	0xbd304742	-0.043036707
108	0xbd15faf8	-0.036616296
109	0xbbbda969	-0.0057880175
110	0x3c96665b	0.018359354
111	0xbc98a819	-0.018634843
112	0xbd10b95c	-0.035333022
113	0x3ced4681	0.028964283
114	0xbd5030ca	-0.05082778
115	0x3ced40cc	0.028961562
116	0xbc7aa2ca	-0.015297601
117	0xbc7f6dd4	-0.01559015
118	0xbcc5c438	-0.024141416
119	0x3988d2a2	0.00026096875
120	0xbcf6a5f2	-0.030108426
121	0x3d0e1fbf	0.034698244
122	0xbb167f0b	-0.0022963907
123	0x3d3f8e62	0.046766646
124	0x3d7369cb	0.059427064
125	0xbc8190c1	-0.015816094
126	0xbd3a4b04	-0.045481697
127	0x3cf1018a	0.02941968
128	0x3d07c29a	0.03314457
129	0xbd46c977	-0.048531976
130	0xbcad7790	-0.021175176
131	0xbd9c57a8	-0.076339066
132	0xbd462e4f	-0.048384007
133	0x390abd3c	0.00013231201
134	0xbb96df0c	-0.004604226
135	0x3a47960b	0.00076136057
136	0xbcb74a08	-0.022374168
137	0x3d52b7a1	0.051444653
138	0xbae6668b	-0.0017578168
139	0xbd229a1d	-0.039697755
140	0xbc0407a2	-0.00805846
141	0x3c2fa5a4	0.010720644
142	0x3caefe58	0.021361515
143	0xbd08c7e5	-0.03339376
144	0x3cf81c36	0.03028689
145	0xbccb7316	-0.02483515
146	0xbd66f8c3	-0.05638958
147	0xbd1552c0	-0.03645587
148	0x3d3f637b	0.04672573
149	0x3d192bfa	0.037395455
150	0x3d7a6d84	0.0611396
151	0x3d23e5a1	0.040013913
152	0x3d3d280e	0.046180777
153	0xbc700da7	-0.0146516925
154	0xbd504dc3	-0.05085541
155	0x3bcfe116	0.006343971
156	0xbd006301	-0.031344417
157	0xbd4f01e3	-0.05053891
158	0xbd219fed	-0.039459158
159	0x3c9be401	0.01902962
160	0x3cb082ed	0.021546805
161	0xbd2aee6e	-0.04173129
162	0xbd688736	-0.056769572
163	0xbccf015a	-0.0252692
164	0xbd589f83	-0.052886497
165	0xbd711db2	-0.05886621
166	0x3b82df11	0.0039938767
167	0xbce325e6	-0.027728032
168	0x3d109e35	0.035307128
169	0x3d1bd325	0.03804316
170	0x3c0801eb	0.0083012385
171	0x3a01773c	0.0004938727
172	0x3b398f63	0.0028314225
173	0xbc987a98	-0.018613145
174	0xbcea2ec3	-0.02858675
175	0xbc585d93	-0.013205904
176	0x3be2ec06	0.006925109
177	0x3d03f7d9	0.032218788
178	0xbcbb02cd	-0.022828484
179	0xbcdf1587	-0.027231945
180	0xbaba8133	-0.0014229178
181	0xbcd8e713	-0.026477372
182	0x3b62a971	0.0034585858
183	0x3d34b8f7	0.04412171
184	0x3d2406e7	0.040045645
185	0x3c895204	0.01676274
186	0xbd185815	-0.037193377
187	0xbcf1807f	-0.029480217
188	0xbc945e7d	-0.018111462
189	0xbb839b2b	-0.0040163
190	0x3c4d332b	0.012524406
191	0xbd757e39	-0.05993483
192	0x3cbf7b1d	0.023374135
193	0xbd318c70	-0.043346822
194	0xbd315ffa	-0.04330442
195	0xbceb5c79	-0.028730618
196	0x3d86826f	0.06567847
197	0xbd2b5fcb	-0.041839402
198	0x3d099a3f	0.033594366
199	0xbbd41c0c	-0.00647307
200	0xbc6be995	-0.014398952
201	0x3cd9d7f6	0.026592236
202	0xbc1a6f9c	-0.009426024
203	0x3cfba6a9	0.030719118
204	0x3d1d4afd	0.038401593
205	0xbd32bab9	-0.043635104
206	0x3d0b9d49	0.034085546
207	0x3ca3e8a8	0.0200084
208	0x3c093bee	0.008376105
209	0x3bacd76d	0.005274704
210	0x3ce12c1b	0.027486851
211	0xbcdd2b9a	-0.02699833
212	0xbc3cb4e0	-0.011517733
213	0x3d792d7c	0.060834393
214	0x3d09e142	0.03366209
215	0xbc15c245	-0.009140556
216	0xbd8002f9	-0.06250567
217	0xbc818ee2	-0.015815202
218	0xbd4183f4	-0.04724498
219	0x3d059837	0.032615867
220	0xbd5a7730	-0.053336322
221	0xbbe07d8d	-0.0068509043
222	0xbc68d617	-0.014211199
223	0x3bcc5508	0.0062357225
224	0x3d872763	0.06599309
225	0x3d253a54	0.04033883
226	0x3d7c69e9	0.06162444
227	0x3d694fa7	0.056960728
228	0x3db5c135	0.08874742
229	0x3c73ef77	0.014888636
230	0x3c6cbfc6	0.014450019
231	0x3d521510	0.051289618
232	0x3b1003ac	0.0021974845
233	0x3d1d8a8d	0.03846221
234	0xbc9ae92a	-0.01891001
235	0xbd2d29bc	-0.04227613
236	0x3c67b0d7	0.014141283
237	0x3b5f34ae	0.00340585
238	0x3cc10e64	0.023566432
239	0x3d8166dc	0.06318447
240	0x3d0caaa8	0.034342438
241	0x3d5f0aad	0.05445354
242	0x3c63ac02	0.01389599
243	0xbd83d80e	-0.064376935
244	0xbd53b5c4	-0.051687017
245	0xbd370718	-0.0446845
246	0xbd883958	-0.066515625
247	0xbd17c847	-0.037056234
248	0xbd79b966	-0.060967825
249	0xbd8025cf	-0.062572114
250	0xbd127d92	-0.035764284
251	0xbd4f45bd	-0.050603617
252	0xbc9edb66	-0.019391727
253	0x3d0080e8	0.031372935
254	0x3d7369c2	0.05942703
255	0xbccb4254	-0.024811901

net.4.bias f4 [64]
0	0xbd571e08	-0.052518874
1	0x3ca9d002	0.020729069
2	0x3ca27fd6	0.019836348
3	0xbd3b0859	-0.045662258
4	0xbbd620c2	-0.0065346668
5	0xb98d0a37	-0.00026901226
6	0xbd5828a2	-0.052773125
7	0x3c88ccc3	0.0166992
8	0xbd80f563	-0.06296804
9	0xbaac6daa	-0.0013155241
10	0x3d439911	0.047753397
11	0x3d0e3664	0.03471984
12	0x3d8103db	0.062995635
13	0xbc6a5923	-0.014303478
14	0xbd028827	-0.031868126
15	0xbd0a0aff	-0.033701893
16	0x3d4462e3	0.04794587
17	0xbd839b4b	-0.06426104
18	0x3cbedefe	0.02329969
19	0xbd614419	-0.054996584
20	0xbb7883ef	-0.0037920435
21	0xbcfbc779	-0.030734764
22	0xbd6cbe55	-0.057798702
23	0xbd22864c	-0.039678857
24	0xbce36953	-0.027760183
25	0x3cb4b867	0.022060586
26	0x3b610099	0.0034332632
27	0xbd0c2155	-0.034211475
28	0x3d709309	0.058733974
29	0xb8847ec5	-6.317863e-05
30	0xbc916c8d	-0.017751956
31	0xbd168ee7	-0.036757376
32	0xbd17060a	-0.036870994
33	0xbd30a79e	-0.043128602
34	0xbd7d2eaa	-0.06181208
35	0xbcb92735	-0.022601703
36	0x3d5f6c32	0.054546542
37	0xbc910429	-0.017702179
38	0xbc3b1499	-0.011418485
39	0x3bfc81a1	0.0077058827
40	0xbb7d506f	-0.0038652678
41	0xbd9b159f	-0.07572483
42	0x3d3212d2	0.04347498
43	0xbd91f209	-0.07126243
44	0xbd6db747	-0.058036115
45	0x39fa4efa	0.00047742558
46	0x3cddc8ba	0.027073253
47	0xbc541368	-0.01294408
48	0x3d1ef7c4	0.038810506
49	0xbd5c6505	-0.053807277
50	0xbc588449	-0.013215133
51	0x3be0160f	0.006838567
52	0xbd1f5c54	-0.03890641
53	0x3da088a1	0.0783856
54	0xbd57ef56	-0.052718483
55	0x3d547ced	0.05187695
56	0x3daa9eeb	0.083310924
57	0xbb761abc	-0.0037552556
58	0xbcc4dc26	-0.024030756
59	0xbc1746a6	-0.0092331525
60	0xbc78ef38	-0.015193753
61	0xbd791529	-0.060811196
62	0x3d24aea1	0.0402056
63	0x3d288df5	0.041151006

net.5.weight f4 [64]
0	0x3f73ae14	0.951875
1	0x3f84adab	1.0365499
2	0x3f77c1e6	0.9678024
3	0x3f77ef39	0.968494
4	0x3f752c66	0.9577087
5	0x3f87c90e	1.0608232
6	0x3f85598a	1.041795
7	0x3f7dd09d	0.99146444
8	0x3f796db1	0.97433
9	0x3f871201	1.0552369
10	0x3f7ecaff	0.995285
11	0x3f86ca54	1.0530496
12	0x3f7631c4	0.96169686
13	0x3f777081	0.9665604
14	0x3f858447	1.0430993
15	0x3f7ae1e7	0.9800095
16	0x3f6ca073	0.92432326
17	0x3f77d1bd	0.9680441
18	0x3f79b376	0.9753946
19	0x3f73e441	0.9527016
20	0x3f7f018c	0.99611735
21	0x3f782db8	0.9694476
22	0x3f79c274	0.97562337
23	0x3f8896d6	1.0671031
24	0x3f6f91cd	0.9358185
25	0x3f866bd4	1.0501657
26	0x3f86c5a0	1.052906
27	0x3f6dbd77	0.92867225
28	0x3f73752f	0.9510068
29	0x3f6ee0f7	0.9331202
30	0x3f850c75	1.0394427
31	0x3f80f8cf	1.007593
32	0x3f75f035	0.9606965
33	0x3f8040b9	1.0019752
34	0x3f76d24d	0.96414644
35	0x3f7ee830	0.9957304
36	0x3f83727f	1.0269316
37	0x3f7f673d	0.99766904
38	0x3f811570	1.0084667
39	0x3f8a8b88	1.0823832
40	0x3f82d9ef	1.0222758
41	0x3f800fb5	1.0004793
42	0x3f8b2b70	1.0872631
43	0x3f717f0b	0.9433448
44	0x3f719713	0.94371146
45	0x3f73847b	0.95124024
46	0x3f7fd5db	0.9993569
47	0x3f8b1448	1.0865564
48	0x3f810ab4	1.0081391
49	0x3f7cadc2	0.98702633
50	0x3f714c1c	0.9425676
51	0x3f81a299	1.0127746
52	0x3f7558d5	0.9583867
53	0x3f793cde	0.973585
54	0x3f768964	0.9630339
55	0x3f7aae5b	0.97922295
56	0x3f8132e4	1.0093656
57	0x3f7ccc1b	0.9874894
58	0x3f734930	0.9503355
59	0x3f84ee80	1.0385284
60	0x3f730c67	0.949408
61	0x3f6f376f	0.9344396
62	0x3f828694	1.019732
63	0x3f80db37	1.0066899

net.5.bias f4 [64]
0	0xbcefe62a	-0.029284555
1	0xba436b0b	-0.00074546103
2	0xbddf8d79	-0.10915656
3	0xbd8f8867	-0.070084386
4	0xbdd4acbb	-0.10384508
5	0xbe51408d	-0.2043478
6	0xbd4fb00d	-0.050705004
7	0xbdbeab28	-0.09309989
8	0xbdef1585	-0.116740264
9	0xbce72baf	-0.028219072
10	0xbd329256	-0.043596588
11	0xbd8153c6	-0.06314807
12	0xbc97340d	-0.018457437
13	0xbdaeecd8	-0.08541268
14	0xbd122ecd	-0.035689164
15	0xbd8a86a3	-0.06763961
16	0xbc02cf6f	-0.007984026
17	0xbd9e124b	-0.07718333
18	0xbcac3d85	-0.021025429
19	0xbcf224eb	-0.02955862
20	0xbd47bdf1	-0.048765127
21	0x3bb70b95	0.0055860975
22	0xbdcf0501	-0.10108376
23	0x3bbab869	0.005698253
24	0xbd45814e	-0.048219018
25	0xbdca7de3	-0.09887292
26	0xbd96bf68	-0.073607266
27	0xbcef34ef	-0.029200045
28	0xbdbf4636	-0.093395635
29	0xbd94ac8f	-0.072594754
30	0xbd4b14f2	-0.049580522
31	0xbd09a7f1	-0.033607427
32	0xbdd0daf2	-0.101980105
33	0xbd704544	-0.058659807
34	0xbd00e5d5	-0.031469185
35	0xbdcb4ddb	-0.09926959
36	0xbd81bf75	-0.06335346
37	0xbd7ae6b6	-0.06125518
38	0xbd99787c	-0.07493684
39	0xbce58bb2	-0.028020713
40	0xbd4c0c20	-0.04981625
41	0xbbd07f2c	-0.0063628163
42	0x3c9092a6	0.017648052
43	0x3b0332c9	0.0020019284
44	0xbd48c481	-0.049015526
45	0xbd11179f	-0.035422917
46	0xbda437a9	-0.08018429
47	0xbe320722	-0.17385533
48	0xbdc1ced7	-0.0946328
49	0xbd7985e0	-0.06091869
50	0xbd8bbdf6	-0.068233415
51	0xbd162c2d	-0.036663223
52	0xbd2db3d8	-0.04240784
53	0xbd916912	-0.07100119
54	0xbd4e7f9a	-0.05041466
55	0xbdcaed07	-0.09908491
56	0xbda14022	-0.078735605
57	0xbd7d2579	-0.061803315
58	0xbd33149f	-0.043720838
59	0x3d017fc1	0.031615976
60	0xbda11a0f	-0.078662984
61	0xbd82018b	-0.063479505
62	0xbdc6a41e	-0.096992716
63	0xbe052803	-0.13003545

net.5.running_mean f4 [64]
0	0xbf589240	-0.8459816
1	0xbf071c91	-0.52777964
2	0xbf25090e	-0.6446694
3	0xbe688bae	-0.22709534
4	0x3dc6fe4c	0.09716472
5	0xbdbf37d2	-0.09336819
6	0xbf2178a5	-0.63074714
7	0xbf986cbe	-1.1908185
8	0xbf35b424	-0.70978
9	0xbf8f3ed3	-1.1191047
10	0xbf4c8122	-0.7988454
11	0xbf5ae6f4	-0.85508657
12	0xbf4a2a47	-0.7897076
13	0xbe50115b	-0.2031912
14	0xbfaa0656	-1.3283184
15	0xbdfe9a62	-0.1243179
16	0x3fb3616c	1.4014106
17	0xbf667408	-0.900208
18	0x3f1dd2dc	0.6164987
19	0xbfc0c555	-1.5060221
20	0xbf9dd16a	-1.2329533
21	0x3f1b81b5	0.6074479
22	0xbf1c1171	-0.60964113
23	0xc01c2bff	-2.4401853
24	0x3f912910	1.1340656
25	0xbf5fd8c4	-0.87440133
26	0xbf288a12	-0.6583568
27	0x4005c4b2	2.0901303
28	0xbf5fde7e	-0.8744887
29	0xbd0ea898	-0.034828752
30	0xbf2e09e7	-0.6798386
31	0x3d1a1253	0.03761513
32	0xbf017d6f	-0.5058202
33	0xbf1fe98d	-0.62465745
34	0xbfa7eae9	-1.3118564
35	0xbf39ef26	-0.72630537
36	0xbf2d024e	-0.6758164
37	0xbee39dc8	-0.44456315
38	0xbf1bd159	-0.60866314
39	0xbf48c877	-0.78430885
40	0x3f8a9857	1.082774
41	0xbfaaa3ff	-1.3331298
42	0xbf43a7dd	-0.76428014
43	0x3f44fdfa	0.7695004
44	0xbe2200ef	-0.15820669
45	0x3ea30d4c	0.31846082
46	0xbf737afd	-0.9510954
47	0xbea08b9f	-0.31356522
48	0xbeb071e2	-0.34461886
49	0xbfd6b049	-1.6772548
50	0xbee1bbc2	-0.4408856
51	0xbf8f0f9d	-1.117664
52	0xbfd486b6	-1.660361
53	0xbce89aa8	-0.028394058
54	0xbe4168b3	-0.18887596
55	0xbea80892	-0.3281904
56	0xbffd0b75	-1.9769121
57	0xbf0c1907	-0.5472569
58	0x3ee73485	0.45157257
59	0xbfa417a4	-1.2819715
60	0xbf0ffbdc	-0.5624368
61	0xbf4a9dc0	-0.7914696
62	0xbf1eabc1	-0.61980826
63	0xbd28805d	-0.04113804

net.5.running_var f4 [64]
0	0x3ef39499	0.4757431
1	0x3ea8edcc	0.32993925
2	0x3eea0a7c	0.45711124
3	0x3f0c60a1	0.54834944
4	0x3f28dd42	0.6596261
5	0x3f222d3d	0.6335028
6	0x3e59ef9e	0.21282813
7	0x3f012f3d	0.50462705
8	0x3f338317	0.701219
9	0x3f14ef1b	0.58177346
10	0x3eb7d527	0.3590481
11	0x3f29e037	0.6635775
12	0x3f987edc	1.1913714
13	0x3fe76fe2	1.8081019
14	0x3f2d5bb0	0.6771803
15	0x3f4a1572	0.7893897
16	0x3eff2643	0.4983388
17	0x3ef75f62	0.4831496
18	0x3e6475c1	0.22310545
19	0x3f9f790f	1.2458819
20	0x3f34c9d4	0.70620465
21	0x3eb82a0e	0.35969585
22	0x3ec249f5	0.3794705
23	0x400ed60b	2.2318141
24	0x4010f7f6	2.2651343
25	0x3f00faf2	0.5038291
26	0x3eda0093	0.42578563
27	0x3fa42608	1.2824106
28	0x3ec0b7a2	0.376401
29	0x3fc686c0	1.5509872
30	0x3e9743b4	0.2954384
31	0x3f15ed96	0.5856565
32	0x3e9e8e3a	0.30967885
33	0x3eebf620	0.46086216
34	0x3f71c4bf	0.94440836
35	0x3f06770b	0.52525395
36	0x3eec44b7	0.46146175
37	0x3eb2eb5a	0.34945184
38	0x3f132913	0.5748455
39	0x3e7b1774	0.24520665
40	0x3f6f13b6	0.9338945
41	0x3ee92100	0.4553299
42	0x3ec2ee6f	0.38072535
43	0x3eb3ccc4	0.3511716
44	0x400122aa	2.0177407
45	0x3f80fd64	1.0077329
46	0x3f04aa00	0.518219
47	0x3f07a1ae	0.5298108
48	0x3f3b113e	0.73073184
49	0x3f1ab6f9	0.60435444
50	0x3f4d2d2f	0.8014707
51	0x3f0aa41e	0.5415667
52	0x3f806d9b	1.0033449
53	0x3ee80862	0.45318896
54	0x3f2a4b63	0.6652128
55	0x3ea8481b	0.32867512
56	0x3f9f8fe1	1.2465783
57	0x3ea3a542	0.3196202
58	0x3fdb863f	1.7150344
59	0x3f0ac528	0.54207087
60	0x3f8ed95e	1.1160085
61	0x3f0dc8ef	0.55384725
62	0x3ea77edc	0.32713974
63	0x3ee03eba	0.43797857

net.8.weight f4 [128, 64, 3, 3]
0	0x3cef8605	0.02923871
1	0x3c801379	0.015634285
2	0xbd04dfab	-0.03243987
3	0xbc878a49	-0.016545432
4	0xbc8136ab	-0.015773138
5	0x3b8c11e9	0.004274596
6	0x3cd6d334	0.026223756
7	0x3b7e1e08	0.0038775224
8	0xbcf7bc79	-0.030241238
9	0xbb9461fa	-0.0045282813
10	0x3acdec39	0.0015710659
11	0x39fc1858	0.00048083323
12	0x3cd175b1	0.025568815
13	0x3c87db64	0.016584106
14	0xbc53e610	-0.012933269
15	0xbaa7c31f	-0.001279924
16	0xbb057ed2	-0.002036978
17	0xbc00d7db	-0.007863964
18	0x3cd9a453	0.026567614
19	0xbb84d46d	-0.0040536434
20	0xbc2cb739	-0.010541731
21	0x3c9ca124	0.019119807
22	0x3cc61a34	0.024182416
23	0x3b2cf610	0.0026391782
24	0x3cad29a0	0.021138012
25	0x3cab8de1	0.020941677
26	0x3cceb117	0.025230927
27	0x3c4e7ccb	0.012602995
28	0xbc8fa071	-0.01753256
29	0xbcc98f2f	-0.024604408
30	0x3c88c7cd	0.016696835
31	0x3cf25c87	0.029585136
32	0x3d23a361	0.039950732
33	0x3c6899ad	0.014196795
34	0x3d0730b9	0.03300545
35	0x3c9ea448	0.019365445
36	0xbd1bc2fd	-0.038027752
37	0x3be5523d	0.006998329
38	0xbcd5d9d8	-0.026104853
39	0xbd022bbe	-0.031779997
40	0x3c901802	0.017589573
41	0xbc2c2358	-0.0105064735
42	0xbcc0c847	-0.023533
43	0x3d1a70fb	0.037705403
44	0x3cad331c	0.021142535
45	0x3c7f60ba	0.015587026
46	0xbb81bd62	-0.003959344
47	0x3cab6ff9	0.020927416
48	0xbc11612d	-0.008873266
49	0x3ac565e0	0.0015060268
50	0xbb4310b7	-0.0029764601
51	0x3d034bc9	0.032054696
52	0xbba9d739	-0.0051831272
53	0xbc387bb9	-0.0112599665
54	0x3d5ad0c8	0.053421766
55	0x3d1872d5	0.037218887
56	0x3d4bc2da	0.04974637
57	0xbc2f880d	-0.010713589
58	0x3d3b0433	0.0456583
59	0xbc3de99f	-0.011591344
60	0xbbb0e90e	-0.005398876
61	0xbb51866b	-0.0031970988
62	0xbbbb52c0	-0.0057166517
63	0xbc199ea5	-0.009376203
64	0xbc059c1d	-0.008154896
65	0xbc67b354	-0.014141876
66	0xbc9073fa	-0.017633427
67	0xbaac7f3f	-0.0013160481
68	0xbb8d6260	-0.0043147057
69	0x3bd0f273	0.0063765584
70	0xbd0eb26a	-0.034838118
71	0x3b83f2fa	0.004026768
72	0x3c35877f	0.011079668
73	0x3bcced4c	0.006253874
74	0xbbdcef87	-0.006742421
75	0x3c96af75	0.018394211
76	0xbc1bcccb	-0.009509276
77	0xbd18b179	-0.037278626
78	0xbd0bdba9	-0.03414503
79	0xbc2d9338	-0.010594182
80	0x3ccaf7b6	0.02477632
81	0xbcc9b9a6	-0.024624657
82	0xbcf6013a	-0.030029882
83	0xbb73a3f9	-0.0037176593
84	0x3c904969	0.01761313
85	0xbca1b645	-0.019740233
86	0xbc5e26fd	-0.0135591
87	0x3bfb146f	0.007662348
88	0x3b7d73fa	0.0038673864
89	0xbd16b910	-0.036797583
90	0xbca3ed21	-0.020010533
91	0x3c1f15d5	0.009709795
92	0xbd67f587	-0.056630637
93	0xbcaed749	-0.02134289
94	0xbcea3936	-0.028591733
95	0xbd475ac5	-0.04867055
96	0xbcaf3518	-0.021387622
97	0xbd16d4db	-0.03682409
98	0xbd55e7d1	-0.05222303
99	0xbda25507	-0.07926374
100	0xbc367d67	-0.011138297
101	0xbd1f01d2	-0.038820095
102	0xbd4fbad2	-0.050715275
103	0xbd34b63b	-0.0441191
104	0xbd9bc057	-0.07605045
105	0xbd3c2a35	-0.04593869
106	0xbd87afe8	-0.06625348
107	0xbc239f39	-0.009986692
108	0xbb3a504a	-0.0028429204
109	0xbb8fe14f	-0.0043908725
110	0x3d0e9efe	0.034819596
111	0xbc96cd8b	-0.018408557
112	0xbca59fa3	-0.020217722
113	0xbbf35213	-0.0074255555
114	0x3bd8ef4f	0.0066203247
115	0xbc6e4a9f	-0.014544158
116	0xbc92351c	-0.01784759
117	0x3d0b2413	0.03396995
118	0x3d02dda6	0.03194966
119	0xbc0e49a8	-0.008684553
120	0xbbd414f4	-0.0064722244
121	0x3d38abed	0.045085836
122	0xbc1f33a1	-0.009716899
123	0xbb336ecd	-0.0027379275
124	0xbc2b6125	-0.010460173
125	0x3d085abb	0.033289652
126	0xbca1b6a8	-0.019740418
127	0x3bb27aa0	0.005446747
128	0xbd50e085	-0.05099537
129	0xbd8521fd	-0.065006234
130	0xbb0d6f4b	-0.0021581228
131	0xbc98e5c7	-0.018664254
132	0xbd8b6f09	-0.06808288
133	0xbd97f48f	-0.07419693
134	0xbcd7e34c	-0.0263535
135	0x3c0eda28	0.008719005
136	0x3ce9a2e3	0.028520053
137	0x3c6b98db	0.014379705
138	0x3c4e71ec	0.012600403
139	0x3d5718f7	0.052514043
140	0x3cd6770a	0.02617981
141	0x3d3c128b	0.04591612
142	0xbae0d93d	-0.0017154586
143	0x3c546c6b	0.012965302
144	0x3a4f6863	0.0007911978
145	0x3b903252	0.00440053
146	0xbc6dba40	-0.0145097375
147	0xbd49e769	-0.049292956
148	0xbd0b2fbc	-0.03398107
149	0x3cc3f401	0.023920061
150	0x3c613796	0.013746163
151	0xb9c563c1	-0.0003764909
152	0xbd41ac51	-0.047283474
153	0xbbe17c4c	-0.0068812724
154	0x3ccef368	0.02526255
155	0xbccae478	-0.024767146
156	0xbb3e6107	-0.0029049532
157	0x3c64aaa3	0.013956699
158	0x3c649090	0.013950482
159	0x3d1aba2c	0.037775204
160	0x3c9a870c	0.018863223
161	0x3d2b9078	0.041885823
162	0xbd8e9736	-0.06962435
163	0xbd388aca	-0.045054235
164	0xbd1fff55	-0.039061863
165	0xbc01f7f5	-0.007932653
166	0xbd6df478	-0.05809447
167	0xbad9a689	-0.0016605417
168	0xbd718b76	-0.05897089
169	0xbd2f1444	-0.042743936
170	0xbbe878c2	-0.0070944736
171	0x3d201749	0.039084706
172	0x3bb28af9	0.0054486957
173	0xbc906bc9	-0.017629521
174	0x3ca9df00	0.020736217
175	0xbc862011	-0.016372712
176	0x3bac1836	0.0052519096
177	0x3cbd894a	0.023136754
178	0x3b243e3a	0.0025061504
179	0x3d15b797	0.036552038
180	0xbc5e32d1	-0.01356192
181	0x3b2ddde0	0.0026529953
182	0x38799b47	5.951084e-05
183	0xbce07f50	-0.027404457
184	0xbd4b91d3	-0.049699616
185	0xbd3f25e3	-0.04666699
186	0xbcf28bf8	-0.029607758
187	0xbd05b39f	-0.032642003
188	0xbcc119cd	-0.023571873
189	0x3c16edab	0.009211938
190	0x389152fb	6.929595e-05
191	0xbca21076	-0.01978324
192	0xbb57fcab	-0.0032956998
193	0xbd31bcbf	-0.043392893
194	0xbc4ef24f	-0.012631013
195	0x3c46eaf8	0.012140982
196	0xbbfd7f96	-0.0077361567
197	0xbcfaa22a	-0.030594904
198	0x3cde587c	0.027141802
199	0xbc1ff54f	-0.009763076
200	0x3d14595f	0.036218043
201	0xbc9e5b3b	-0.019330611
202	0xbcd2e46c	-0.025743686
203	0x3cdaaed2	0.026694689
204	0xbc6d55f7	-0.014485828
205	0x3c09bd20	0.008406907
206	0xbb0090ad	-0.0019617483
207	0x3c34a595	0.011025806
208	0x3c9a86c7	0.018863095
209	0xbbfc71bd	-0.0077039883
210	0x3cc54ea9	0.02408536
211	0x3c2efdfd	0.010680673
212	0x3cf3dce2	0.029768411
213	0x3d806515	0.0626928
214	0x3c653074	0.013988603
215	0x3bf54df6	0.0074861003
216	0xbcad729f	-0.02117282
217	0xbba20e4e	-0.004945553
218	0xbafb1551	-0.0019156133
219	0x3ca52b98	0.020162389
220	0x3b937c0c	0.0045008715
221	0x3c9cfba2	0.019162957
222	0xbc838480	-0.016054392
223	0xbd1901dc	-0.03735529
224	0x3adaffc2	0.0016708302
225	0xbd111dd7	-0.035428848
226	0xbd6c7a8d	-0.05773406
227	0xbd54db02	-0.051966675
228	0xbd7458c3	-0.059654962
229	0xbda9d95c	-0.08293411
230	0xbc0eda86	-0.008719092
231	0xbcb05248	-0.02152361
232	0xbd95f419	-0.073219486
233	0xbda7b37c	-0.08188531
234	0x3b8e2ff6	0.0043392135
235	0x3a6b224f	0.0008969651
236	0xbd72869d	-0.05921041
237	0xbc88abbc	-0.016683452
238	0xbd1de748	-0.038550645
239	0xbd1eb40a	-0.038745917
240	0xbd321794	-0.043479517
241	0xbc27d52c	-0.010243695
242	0x3c1f1187	0.009708769
243	0xba37e40f	-0.00070148794
244	0xbd59021e	-0.052980535
245	0x3be27ff0	0.006912224
246	0x3cc82cda	0.02443545
247	0x3ca6d98c	0.020367406
248	0x3ce143e5	0.027498195
249	0xbd3473e7	-0.044055846
250	0xbd2644dd	-0.040593017
251	0xba143255	-0.0005653252
252	0xbce500b3	-0.027954435
253	0xbc267839	-0.010160499
254	0x3d0da082	0.0345769
255	0x3c38308e	0.011242045

net.8.bias f4 [128]
0	0x3cb9aed3	0.02266637
1	0x3c8418ee	0.016125169
2	0x3d18cd56	0.0373052
3	0xbc6ad0ce	-0.0143320095
4	0x3d475ffe	0.04867553
5	0xbd1873c7	-0.03721979
6	0xbc10afc1	-0.0088309655
7	0xbc62973f	-0.013830005
8	0x3cc6effa	0.024284352
9	0xbb78d6ae	-0.0037969756
10	0x3bc72ae9	0.0060781133
11	0x3b645723	0.0034841977
12	0x3c51b9b7	0.0128006255
13	0xbcf83e04	-0.030303009
14	0x3d13cb4b	0.036082547
15	0xbbb20060	-0.0054321736
16	0xbcd367f3	-0.025806403
17	0x3cce59f5	0.02518938
18	0x3c624491	0.013810293
19	0xbd5878d5	-0.05284961
20	0x3d69eae9	0.057108793
21	0x3d1074d6	0.035267673
22	0x3c161abb	0.0091616465
23	0xbccf3d55	-0.0252978
24	0xbd226f6a	-0.039657034
25	0x3cbb5608	0.022868171
26	0xb99affac	-0.0002956366
27	0xbc372281	-0.01117766
28	0xbd3b954d	-0.04579668
29	0xbd296f4f	-0.041365918
30	0x3bd0af8e	0.006368584
31	0x3cb53b80	0.022123098
32	0x3d2a4bfa	0.041576363
33	0x3d1041d8	0.035219043
34	0x3d260621	0.04053319
35	0x3cd3b881	0.025844814
36	0xbba0f43f	-0.004911929
37	0xbc3d5a75	-0.011557211
38	0x3bfee7fb	0.007779119
39	0x3cacbd2b	0.021086296
40	0xbb0e1306	-0.002167882
41	0xbcbcde8b	-0.023055336
42	0x3ccad86a	0.024761397
43	0x3bf42f20	0.007451907
44	0xbc8acbd3	-0.016942894
45	0xbcecf4dd	-0.028925354
46	0xbb7e0997	-0.003876304
47	0x3cb215ee	0.021738973
48	0x3d01e7bf	0.03171515
49	0x3ced0cd1	0.028936775
50	0xbb0766ea	-0.0020660707
51	0x3c53db0a	0.012930641
52	0xbd15ad9d	-0.036542524
53	0x3ccaebf7	0.02477072
54	0xbd49fe3d	-0.049314726
55	0xbad577c1	-0.00162863
56	0xbc1f3c10	-0.00971891
57	0x38bf492d	9.12122e-05
58	0x3ba2a8b4	0.0049639586
59	0xbd71bf08	-0.059020072
60	0xba6f0c27	-0.00091189373
61	0xbcde87c3	-0.027164346
62	0xbcc8caae	-0.024510708
63	0xbd336f7f	-0.043807503
64	0xbab5f78d	-0.001388298
65	0xbd54c446	-0.051944993
66	0x3c3e7fee	0.0116271805
67	0xbce2f5ad	-0.027705038
68	0x3bb0153f	0.0053736265
69	0xbcbb644c	-0.022874974
70	0x3ba8f5a3	0.0051562353
71	0x3cb534a0	0.02211982
72	0x3d1248bd	0.0357139
73	0x3d18ef8c	0.037337825
74	0x3d0443e5	0.03229131
75	0xbd42f6fe	-0.04759883
76	0xbb4e899c	-0.0031515127
77	0x3c75f2fa	0.015011543
78	0x3af7e3af	0.001891246
79	0x3bcc96ad	0.006243548
80	0xbc935dd5	-0.017989079
81	0xbd11f61f	-0.03563511
82	0x3b693fb0	0.003559094
83	0x3d1c5ec0	0.0381763
84	0x3ceca444	0.028886922
85	0xbc874efc	-0.016517155
86	0x3c5102fe	0.012757061
87	0xbcf2ae70	-0.029624194
88	0x3ce7b5e5	0.028284976
89	0x3d08bb7a	0.033381917
90	0x3d348e41	0.044080976
91	0xbcc461e9	-0.023972468
92	0xbc202ee9	-0.009776809
93	0xbc8143a0	-0.015779316
94	0xbd0eaa4e	-0.034830384
95	0xbcd4c9f2	-0.025975201
96	0xbcaa77ab	-0.020809015
97	0x3cb980a4	0.022644348
98	0x3c2534c7	0.010083384
99	0x3cb5f9b6	0.022213798
100	0x3d74e9c8	0.059793264
101	0x3c5ac2a1	0.013352067
102	0xbcb2887c	-0.021793596
103	0xbd35bc76	-0.044369183
104	0xbc629880	-0.013830304
105	0xbcf18887	-0.029484047
106	0x3c91572c	0.017741762
107	0xbccdb021	-0.025108399
108	0x3c2cec20	0.010554343
109	0xbcb237aa	-0.021755058
110	0x3c5ff791	0.013669864
111	0x3cc70864	0.024295993
112	0x3c36a003	0.011146548
113	0x3b69a3ec	0.0035650684
114	0xbce3498b	-0.027745029
115	0xbbc3c3c7	-0.005974266
116	0x3cb6e05b	0.022323778
117	0x3d32288b	0.043495696
118	0x3cd4e937	0.025990112
119	0xbd2ab88f	-0.041679915
120	0x3ced2871	0.028949948
121	0xbc882191	-0.016617568
122	0x3c23bd75	0.009993901
123	0x3c5d832a	0.0135200415
124	0x3c3e3b4f	0.01161082
125	0x3c1d911a	0.009617114
126	0xbb8c841e	-0.0042882105
127	0xbbf2ffa8	-0.0074157305

net.9.weight f4 [128]
0	0x3f97c427	1.1856736
1	0x3f92aa53	1.1458229
2	0x3f902a34	1.1262879
3	0x3f920202	1.1406863
4	0x3f96ff88	1.1796732
5	0x3f87f52e	1.0621698
6	0x3f8c8182	1.0977023
7	0x3f971403	1.1802982
8	0x3f956010	1.1669941
9	0x3f91abc0	1.1380539
10	0x3f969166	1.1763122
11	0x3f9579d6	1.1677806
12	0x3f9827cc	1.1887145
13	0x3f904777	1.1271809
14	0x3f8e2b39	1.110694
15	0x3f92ead4	1.1477914
16	0x3f994cfe	1.1976621
17	0x3f92f4b8	1.1480932
18	0x3f93947a	1.1529686
19	0x3f998996	1.1995113
20	0x3f8dec06	1.1087654
21	0x3f8dfc2d	1.1092583
22	0x3f9347dd	1.1506306
23	0x3f937972	1.1521437
24	0x3f8d4999	1.1038085
25	0x3f968118	1.1758146
26	0x3f902c8f	1.1263598
27	0x3f941848	1.156991
28	0x3f93ae0e	1.1537492
29	0x3f8a751c	1.0816989
30	0x3f9a3453	1.2047218
31	0x3f930af9	1.1487724
32	0x3f94b3a0	1.1617317
33	0x3f926b32	1.1438963
34	0x3f911ade	1.1336324
35	0x3f988ac0	1.1917343
36	0x3f9486f1	1.1603681
37	0x3f91cee5	1.1391264
38	0x3f99cb26	1.2015121
39	0x3f965867	1.1745728
40	0x3f977754	1.1833291
41	0x3f929d76	1.1454303
42	0x3f951af2	1.1648848
43	0x3f96798b	1.1755842
44	0x3f91389c	1.1345401
45	0x3f94665d	1.1593739
46	0x3f8d8af8	1.1058035
47	0x3f963922	1.1736186
48	0x3f8d21e7	1.1025971
49	0x3f935030	1.1508846
50	0x3f90c752	1.1310828
51	0x3f946ca3	1.1595653
52	0x3f9325db	1.1495928
53	0x3f8dea32	1.1087096
54	0x3f94707b	1.1596826
55	0x3f949a64	1.1609616
56	0x3f8f17e5	1.1179167
57	0x3f955026	1.1665084
58	0x3f93b7a0	1.1540413
59	0x3f8ebe2f	1.115179
60	0x3f94cd02	1.1625063
61	0x3f939244	1.1529012
62	0x3f95a11e	1.1689794
63	0x3f92774a	1.1442654
64	0x3f971c91	1.1805593
65	0x3f924088	1.1425943
66	0x3f91491f	1.135044
67	0x3f907f88	1.128892
68	0x3f96730c	1.175386
69	0x3f983831	1.1892148
70	0x3f936e4d	1.1518036
71	0x3f8fd77f	1.1237639
72	0x3f95c1d2	1.1699774
73	0x3f91c876	1.1389301
74	0x3f8c62ed	1.096769
75	0x3f914db5	1.1351839
76	0x3f9708dd	1.179958
77	0x3f8e34e9	1.1109897
78	0x3f954064	1.1660275
79	0x3f941fde	1.1572225
80	0x3f8f3979	1.1189414
81	0x3f93e456	1.1554058
82	0x3f940b54	1.1565957
83	0x3f9235e9	1.1422702
84	0x3f97b4a7	1.1852006
85	0x3f9423da	1.1573441
86	0x3f902ca8	1.1263628
87	0x3f951918	1.1648283
88	0x3f94bf71	1.1620923
89	0x3f99c25c	1.2012439
90	0x3f98fbd0	1.1951847
91	0x3f981d73	1.1883987
92	0x3f906d0d	1.128328
93	0x3f92e679	1.1476585
94	0x3f94e474	1.1632218
95	0x3f95522b	1.1665701
96	0x3f94c03b	1.1621164
97	0x3f930765	1.1486632
98	0x3f96319d	1.1733891
99	0x3f8ea878	1.1145163
100	0x3f8d6363	1.1045955
101	0x3f95a2aa	1.1690266
102	0x3f922e5d	1.1420399
103	0x3f91ac15	1.138064
104	0x3f9532e3	1.1656154
105	0x3f8e0d7c	1.1097865
106	0x3f9236d4	1.1422982
107	0x3f95da44	1.1707234
108	0x3f99a829	1.2004443
109	0x3f98d310	1.1939411
110	0x3f943f54	1.1581826
111	0x3f95fafa	1.1717217
112	0x3f9a262b	1.2042898
113	0x3f96acc6	1.1771476
114	0x3f9d19e7	1.227353
115	0x3f90f1f7	1.1323842
116	0x3f985fdb	1.1904253
117	0x3f95b382	1.1695406
118	0x3f8f49b7	1.1194371
119	0x3f95a525	1.1691023
120	0x3f972aa4	1.1809888
121	0x3f941eec	1.1571937
122	0x3f985a98	1.1902647
123	0x3f8c84ae	1.0977991
124	0x3f97aef8	1.1850271
125	0x3f8e6d69	1.1127139
126	0x3f8de0f3	1.1084274
127	0x3f98d377	1.1939534

net.9.bias f4 [128]
0	0x3e184c28	0.14872801
1	0x3de36a39	0.11104245
2	0x3db63022	0.08895899
3	0x3dd1eee2	0.102506414
4	0x3df35c79	0.11882872
5	0x3d18bc7c	0.037289128
6	0x3d8a8a65	0.06764678
7	0x3e05f35a	0.13081113
8	0x3dfda8ad	0.12385688
9	0x3d9f8ba8	0.07790309
10	0x3e050c8a	0.12993065
11	0x3db6e598	0.0893051
12	0x3e20ce84	0.1570378
13	0x3d084de8	0.033277422
14	0x3da8981f	0.0823214
15	0x3dea3725	0.11436299
16	0x3ddc4871	0.107560046
17	0x3ddddd0b	0.10833176
18	0x3ddd73bd	0.10813091
19	0x3e039653	0.12850313
20	0x3dc7dd26	0.097589776
21	0x3d925b5a	0.0714633
22	0x3df1a5ad	0.11799178
23	0x3dcadac1	0.09905005
24	0x3dc33c7b	0.0953302
25	0x3dd8a91e	0.105791315
26	0x3da865bb	0.082225285
27	0x3de6a8ca	0.11262663
28	0x3dac7178	0.0842008
29	0x3d67ffef	0.05664056
30	0x3e1b3896	0.15158305
31	0x3dc90d6b	0.098170124
32	0x3dd74d63	0.10512807
33	0x3db6bab9	0.08922333
34	0x3dcc16d6	0.09965293
35	0x3e26a96d	0.16275568
36	0x3db1c056	0.08679263
37	0x3dae9bb8	0.08525795
38	0x3e0f930a	0.14020935
39	0x3e14abf6	0.14518723
40	0x3e02574a	0.1272861
41	0x3db42b96	0.08797376
42	0x3e06d8e5	0.13168676
43	0x3e17da3d	0.14829345
44	0x3dd4f600	0.10398483
45	0x3dd7be78	0.10534376
46	0x3d80fa4f	0.062977426
47	0x3dfcca29	0.123432465
48	0x3d8245b0	0.06360948
49	0x3dd0d7d6	0.101974174
50	0x3da37e47	0.0798307
51	0x3de236fb	0.11045643
52	0x3d834125	0.0640891
53	0x3d3835bc	0.04497312
54	0x3df606d4	0.12013021
55	0x3df61bee	0.12017046
56	0x3da76cd1	0.08175052
57	0x3df677b6	0.12034552
58	0x3dc8dbd7	0.09807556
59	0x3d6e3a32	0.058160968
60	0x3df1bd47	0.1180368
61	0x3db5e228	0.088810265
62	0x3dff49b6	0.12465231
63	0x3d832f2a	0.0640548
64	0x3dddcf78	0.10830587
65	0x3d91ac33	0.071129225
66	0x3dd87181	0.10568524
67	0x3dc4c8c5	0.09608606
68	0x3dbde316	0.09271829
69	0x3e0b05ee	0.13576481
70	0x3deca25e	0.115544066
71	0x3db696c0	0.08915472
72	0x3e0e90f3	0.13922481
73	0x3d9e6aa5	0.077351846
74	0x3d57124e	0.05250769
75	0x3da5692c	0.080767006
76	0x3dc9fdc3	0.09862854
77	0x3d9ee821	0.07759119
78	0x3e0484aa	0.12941232
79	0x3dba1bdb	0.09087344
80	0x3dabdda4	0.08391884
81	0x3dc95c24	0.098320276
82	0x3dd85809	0.105636664
83	0x3dc1743a	0.094459966
84	0x3e14d8d8	0.14535844
85	0x3ddc1a8d	0.10747252
86	0x3da90ecc	0.082547754
87	0x3dc09129	0.09402687
88	0x3d84b6f0	0.06480205
89	0x3e06c5d2	0.131614
90	0x3e0016b2	0.12508658
91	0x3e231f23	0.15929846
92	0x3cd29980	0.02570796
93	0x3dd92733	0.1060318
94	0x3dc15787	0.09440523
95	0x3df499fe	0.11943434
96	0x3e0156dd	0.12630792
97	0x3dad2999	0.084552
98	0x3decebd1	0.11568416
99	0x3db9178c	0.09037694
100	0x3d8f042f	0.0698322
101	0x3db79b9c	0.08965227
102	0x3da95f02	0.082700744
103	0x3dae467a	0.08509536
104	0x3dfac70b	0.12244996
105	0x3d5a779c	0.053336725
106	0x3ddf999d	0.10917971
107	0x3dc7b4a1	0.09751249
108	0x3e1f8770	0.15579009
109	0x3d6a444f	0.05719405
110	0x3de63435	0.112404265
111	0x3def47a0	0.11683583
112	0x3e1fb775	0.15597327
113	0x3e01da4c	0.1268093
114	0x3e0e6fe7	0.13909875
115	0x3db7f2ca	0.08981855
116	0x3dfdc571	0.123911746
117	0x3dd317ba	0.1030726
118	0x3d2b104f	0.0417636
119	0x3dfbc27f	0.122929566
120	0x3e18c2d9	0.14918078
121	0x3da28505	0.07935528
122	0x3e0d1bd3	0.13780145
123	0x3d7f35d4	0.062307194
124	0x3e05c4d3	0.13063364
125	0x3dd23a71	0.10265053
126	0x3d82c10a	0.063844755
127	0x3de23349	0.11044938

net.9.running_mean f4 [128]
0	0xbd94881a	-0.07252522
1	0x3eedb252	0.4642511
2	0x3ed0b939	0.40766314
3	0x3dd2d124	0.10293797
4	0x3ebc1973	0.36738166
5	0x3f17b198	0.5925536
6	0x3f2108b9	0.62903935
7	0xbf34d4be	-0.7063712
8	0xbf59f9ac	-0.85146594
9	0x3f067bff	0.52532953
10	0xbf197cb7	-0.59955925
11	0x3f6c4251	0.9228869
12	0x3f8a9b3d	1.0828625
13	0x3f82db40	1.022316
14	0xbe78843a	-0.2426919
15	0xbc46c271	-0.012131319
16	0x3deacb34	0.11464539
17	0xbf55641e	-0.8335589
18	0xbe4f8395	-0.20265038
19	0x3f3b18bf	0.73084635
20	0xbf8189da	-1.0120194
21	0xbf8332af	-1.0249842
22	0x3e8eeeb1	0.27916482
23	0xbf843f02	-1.0331728
24	0x3faa8edc	1.3324847
25	0x3e76e7f8	0.24111927
26	0x3f96af56	1.1772258
27	0xbe1bf874	-0.15231496
28	0x3f16ffae	0.58983886
29	0xbf23b744	-0.63951516
30	0xbf2c7b7f	-0.6737594
31	0xbf3c33d7	-0.735166
32	0xbd550a2a	-0.052011646
33	0x3e59c6db	0.21267264
34	0xbebd25f1	-0.3694301
35	0xbeb9f944	-0.36322987
36	0x3f6d405d	0.92676336
37	0x3f8c900c	1.098146
38	0x3d25232c	0.040316746
39	0x3ef56f63	0.47936544
40	0x3f6080ae	0.8769635
41	0x3e019e3b	0.12658016
42	0xbe0f9c86	-0.14024553
43	0xbf52d4c9	-0.82355934
44	0xbea0991d	-0.31366816
45	0x3fa59a3d	1.2937695
46	0xbf0af7b2	-0.54284203
47	0x3f8a95c4	1.0826955
48	0x3f4397ec	0.7640369
49	0x3e574423	0.21022086
50	0x3d089b48	0.033351213
51	0xbde35394	-0.11099926
52	0x3fa69410	1.3013935
53	0x3f1f04ac	0.62116504
54	0x3fc41c81	1.5321199
55	0xbef70e2a	-0.48252994
56	0xbed934ec	-0.4242319
57	0x3e9aaafd	0.3020858
58	0x3de65e13	0.11248412
59	0x3f2ef2b9	0.68339115
60	0x3ed3b870	0.41351652
61	0x3fc9881f	1.5744666
62	0xbedeedb4	-0.43540728
63	0x3f8b59ea	1.0886815
64	0xbe4d06b0	-0.20022082
65	0x3fb583e2	1.4180872
66	0x3ed3e344	0.41384327
67	0xbeb03bda	-0.34420663
68	0xbd8ff251	-0.0702864
69	0x3f0e707a	0.55640376
70	0xbe42eac1	-0.19034864
71	0x3f05dd0e	0.5229043
72	0x3ee7c3a7	0.45266458
73	0x3f5f3f71	0.8720618
74	0x3e9daa16	0.30793828
75	0x3eda9bd7	0.4269702
76	0x3edfd32e	0.43715805
77	0xbda51c22	-0.080620065
78	0xbf522b79	-0.82097584
79	0x3e24c141	0.16089346
80	0x3f5abc2d	0.85443383
81	0x3f0e0524	0.55476594
82	0xbedd8714	-0.4326712
83	0xbe74d318	-0.23908651
84	0x3edbe91f	0.42951295
85	0xbe5bfe7f	-0.21483801
86	0x3fb50289	1.4141399
87	0x3f3ef988	0.74599504
88	0x3f94fb57	1.1639203
89	0x3dff027f	0.12451648
90	0x3f67c14d	0.9052933
91	0xbf045c0a	-0.5170294
92	0xbe50d414	-0.20393401
93	0x3eb37a1c	0.350541
94	0x3f0bb64a	0.54575026
95	0x3f86b63c	1.0524364
96	0x3f070073	0.5273506
97	0xbf840fa2	-1.0317271
98	0x3f380fb0	0.7189894
99	0x3f2b1794	0.6683285
100	0x3eff6346	0.49880427
101	0x3c294742	0.010331931
102	0x3faadc6d	1.3348519
103	0x3f9ea239	1.2393256
104	0xbdfc5b3e	-0.123220906
105	0x3f47df15	0.7807477
106	0xbea1ff7c	-0.31640232
107	0x3e66f67a	0.22554961
108	0xbf439d19	-0.76411587
109	0x3ee99192	0.45618874
110	0x3e81c7aa	0.25347644
111	0x3f0661cf	0.52492994
112	0x3e0e0118	0.13867605
113	0xbf702664	-0.9380858
114	0xbef1d2ac	-0.47231042
115	0xba085410	-0.00052005146
116	0x3c9f8759	0.019473718
117	0x3f1fc008	0.6240239
118	0x3fb943fd	1.4473873
119	0x3f1af80e	0.6053475
120	0x3e10ac02	0.14128116
121	0x3e0b1e3a	0.1358575
122	0x3f214408	0.6299443
123	0xbe9fa002	-0.31176764
124	0x3e89d206	0.26918048
125	0xbee844b0	-0.45364904
126	0x3f15ec4e	0.585637
127	0xbec02328	-0.37526822

net.9.running_var f4 [128]
0	0x3e978733	0.29595336
1	0x3f0df500	0.55451965
2	0x3e9049b7	0.2818124
3	0x3ee79048	0.45227265
4	0x3eee91ab	0.4659551
5	0x3e737711	0.23775889
6	0x3f16acf6	0.5885767
7	0x3ed0578e	0.406918
8	0x3eab5a85	0.33467498
9	0x3ec20ca8	0.3790028
10	0x3e953b55	0.2914683
11	0x3f1511d6	0.5823034
12	0x3edf4c45	0.43612877
13	0x3ed6b2e9	0.41933373
14	0x3e4a03fc	0.19728082
15	0x3f3476a5	0.7049354
16	0x3f05b445	0.52228194
17	0x3eee0430	0.4648757
18	0x3f1a49e5	0.60269004
19	0x3f09b718	0.53795004
20	0x3eb3a41f	0.35086152
21	0x3e926b70	0.28597593
22	0x3e61dfb9	0.22058
23	0x3ecb27f9	0.39678934
24	0x3f102e2b	0.56320447
25	0x3f07dc4d	0.5307053
26	0x3f302b9e	0.68816555
27	0x3e6f6936	0.23379979
28	0x3ea23ac2	0.31685454
29	0x3e8a942d	0.27066174
30	0x3eaa2759	0.33233145
31	0x3eaaf294	0.33388197
32	0x3ea82972	0.3284412
33	0x3e5a6b9f	0.21330117
34	0x3e703a94	0.23459846
35	0x3f098283	0.5371477
36	0x3f00294a	0.50063
37	0x3eaf872c	0.34282815
38	0x3e84bb7e	0.25924295
39	0x3eb0fd06	0.34568042
40	0x3ef8ccc3	0.4859372
41	0x3ecad4ab	0.39615378
42	0x3f078eb1	0.52952105
43	0x3f0eea47	0.5582623
44	0x3e8e68ab	0.2781423
45	0x3f0f714f	0.5603227
46	0x3f09c8c8	0.5382199
47	0x3f0c789d	0.5487154
48	0x3eb8333a	0.35976583
49	0x3e716f69	0.23577656
50	0x3eb59859	0.35467795
51	0x3f006d2d	0.5016659
52	0x3ef96e8d	0.48717156
53	0x3e4cfe40	0.20018864
54	0x3f0ad12a	0.5422541
55	0x3ec68812	0.38775688
56	0x3ee0eafc	0.4392928
57	0x3efd390a	0.4945758
58	0x3e8e6a52	0.2781549
59	0x3e9989d4	0.29987967
60	0x3f0826e6	0.53184354
61	0x3ebb897e	0.36628336
62	0x3eadf49e	0.3397569
63	0x3ef00f0f	0.4688649
64	0x3ec0020c	0.37501562
65	0x3ee8e0db	0.4548405
66	0x3f321f78	0.6957927
67	0x3e8728c1	0.2639828
68	0x3f1290a9	0.57251984
69	0x3ef48c09	0.47763088
70	0x3f4dd1a9	0.8039804
71	0x3e9d33e8	0.30703664
72	0x3f199fe2	0.60009587
73	0x3eb00795	0.34380785
74	0x3ebd9891	0.3703046
75	0x3e5003ec	0.20313996
76	0x3ecc8a05	0.3994905
77	0x3f1c7c34	0.6112702
78	0x3ebf3868	0.37347722
79	0x3edc64de	0.43045706
80	0x3eb420b8	0.35181212
81	0x3ee91713	0.45525417
82	0x3e9c14bb	0.30484566
83	0x3ed78ede	0.42101187
84	0x3ee1496e	0.44001335
85	0x3eeb7169	0.45984963
86	0x3ee7cfe8	0.45275807
87	0x3efaad1f	0.48960206
88	0x3ec4c23b	0.38429436
89	0x3f020ca4	0.5080054
90	0x3ef2a4cc	0.47391355
91	0x3eafa0c2	0.34302336
92	0x3e8e6347	0.27810118
93	0x3ef89f32	0.48558956
94	0x3ef0d90f	0.47040603
95	0x3ee3f644	0.44523823
96	0x3ebb5d21	0.3659449
97	0x3f3b7fe5	0.73242027
98	0x3e974406	0.29544085
99	0x3ea0caa8	0.31404614
100	0x3e9ac720	0.30230045
101	0x3f03e9b8	0.515285
102	0x3f172128	0.5903497
103	0x3efae37e	0.49001688
104	0x3ec0fa06	0.37690753
105	0x3e9afa0d	0.302689
106	0x3f366a7d	0.7125624
107	0x3f4916da	0.78550494
108	0x3ec16de3	0.3777915
109	0x3e8d6192	0.27613503
110	0x3ea2710c	0.31726873
111	0x3e8b11ff	0.27162167
112	0x3ed1b53a	0.40958577
113	0x3f2756e9	0.6536699
114	0x3edcf2d6	0.4315402
115	0x3f147e7b	0.58005494
116	0x3eb242b9	0.3481653
117	0x3f16a571	0.58846194
118	0x3ee78230	0.45216513
119	0x3e5faa83	0.21842389
120	0x3e8ea12b	0.27857336
121	0x3ebee215	0.37281862
122	0x3e50c7b7	0.20388685
123	0x3f0165b6	0.50545824
124	0x3ec5f22f	0.38661334
125	0x3f1dc1e1	0.6162396
126	0x3e6e23e5	0.2325588
127	0x3f140955	0.5782674
